Android_App/app/src/main/assets/hindi.tflite (tflite, 71088 bytes, 6 tensors)

sequential_1/dense_1/BiasAdd/ReadVariableOp/resource f4 [5]
00000000: c875 183b 82c3 a3bc 4eae 803c a8f2 4c3b
00000010: 3b1e 97bb
0.0023263562 -0.019990686 0.015708115 0.0031272564 -0.004611758

sequential_1/conv2d_3/BiasAdd/ReadVariableOp/resource f4 [64]
00000000: b148 8ebc 909d e4bb 5b0c 5a3a 66a4 b6ba
00000010: a1ce 02bc bd3d 733c 1a9c be3c 4735 9739
00000020: 3961 a93d 4e9e 643c 611e 1fbb 84a4 81bc
00000030: 7012 e33b f6cf 80bc 0944 45bc 7e4e e7bc
00000040: f378 a8bb bd43 50bc bafe cf39 ac19 8a39
00000050: cb84 1c3a 3f74 17bc 6fba 29bc e5fe 95bc
00000060: 8285 bfba ad49 5cbc 59eb 99bb 869b 3cbc
00000070: 0902 29bb 15cc 20bc ba4c 60bc b45b c7bc
00000080: 0e0f a7bc 7348 26bc 0b60 473c ab66 3cbb
00000090: e4b8 183c eec6 63bc 3019 11bc a034 a7bc
000000a0: 0274 d9bc 7791 c93b 3d50 84bc 3bad cebb
000000b0: 6ee5 48bc 35c9 29bc 2b8e 14bb 16e5 8bbb
000000c0: 01cc e4bc ec68 3e3c afb2 853c 8c30 d1bb
000000d0: ecad 43ba ee1d 263c 3575 a9bc 2f8e 62bb
000000e0: ac9b f7bc 3d02 95ba cc7d a2bc d6c8 883c
000000f0: ca80 e4bc 1d2f c6bc e3db c53b 2409 84bc
-0.017368646 -0.0069767907 0.0008317881 -0.0013934493 -0.0079838345 0.0148462625 0.023267794 0.0002884066
0.08270497 0.013953758 -0.0024279582 -0.015825517 0.006929688 -0.015724164 -0.012040147 -0.02823567
-0.0051413714 -0.012711463 0.00039671903 0.00026340538 0.00059707154 -0.009244024 -0.010359391 -0.01831002
-0.0014611932 -0.0134453 -0.004697245 -0.011511689 -0.0025788567 -0.009814282 -0.013690168 -0.02433572
-0.02039292 -0.010149109 0.0121688945 -0.0028747718 0.009321425 -0.013902409 -0.008856103 -0.020410836
-0.026544575 0.006151374 -0.016151542 -0.006307272 -0.012261732 -0.010362913 -0.0022667747 -0.0042692525
-0.027929308 0.011621695 0.016320555 -0.006383961 -0.0007464576 0.010138972 -0.020685771 -0.0034569611
-0.030225597 -0.0011368465 -0.019835375 0.016697329 -0.027893443 -0.024192387 0.0060381754 -0.01611764

sequential_1/conv2d_2/BiasAdd/ReadVariableOp/resource f4 [32]
00000000: c612 92bc 5597 a7bb 8e50 a93c 9aec 47bb
00000010: f28c 28bc 8ca8 2a3c 4eb2 d13a 8306 cdba
00000020: a8de 023d d189 35ba f619 613d 6084 063b
00000030: af55 243d 6bcc d039 95da 2fbc 2216 1a3a
00000040: d9e1 02bb ee82 9a3c 54e7 89bb c3ea 8b3c
00000050: 0769 ccbc 159c 22bd 4cf1 60bc 645f 1e39
00000060: 7377 9d3b 9993 e53c 7c1d ba3b 551d a6bc
00000070: c0e9 b5ba efde 813c f3fa f8bb c0d7 efba
-0.017831217 -0.0051144757 0.020668294 -0.0030506016 -0.01028751 0.010416161 0.0015998574 -0.00156422
0.031950623 -0.00069251383 0.0549564 0.002052568 0.040120777 0.00039825155 -0.010733266 0.0005877932
-0.0019971041 0.01886126 -0.0042084847 0.017079717 -0.024952425 -0.039699633 -0.013729405 0.0001510359
0.004805499 0.028024482 0.0056797843 -0.020277658 -0.0013878867 0.015853373 -0.007598275 -0.0018298551

sequential_1/dense_1/MatMul i1 [5, 9216] scale=0.0012810908 zero_point=0
00000000: f9f2 0fe6 fbeb 1102 14e5 08ed f5d9 ecdb
00000010: 03f0 e8eb e904 fde4 1af6 f4e6 2006 f4e2
00000020: e3d8 130a f8f4 2ae7 d5ca d7d0 fcf4 1ff8
00000030: faf8 f7e0 d60e 0cfa e917 e4f7 f6ed 09e0
00000040: e601 fbed 14cd 0719 11df f0fc 13ee effd
00000050: f5f5 e103 1014 fffc fefe f210 26fa fae4
00000060: fe01 1400 faf4 0fe4 f8dc 01fa f702 23ef
00000070: 07fb dde9 e5f7 ea04 0215 e80f 05f9 1407
00000080: 03ee f500 f1f7 151d 28fa f5f5 f8de 0ff9
00000090: f9eb bef7 12fb 14ed 17f9 ef04 3005 0de9
000000a0: f4ec 11fd f20a f4e5 e6d7 0503 00f6 fd0e
000000b0: 0714 c903 0211 0e1c f514 e3e8 08e9 1df8
000000c0: f10d 11f9 1aeb 0109 20fc f2fb e7e3 fdfc
000000d0: 0dea d7fe fc21 0506 04f4 f9fc f30f 02f7
000000e0: 0fec 18f7 f20e 01fc ede5 03f6 edfe 09f3
000000f0: ef21 de19 eaef 00ff ff02 fe06 f0f1 ed05
-0.008967635 -0.01793527 0.019216362 -0.03330836 -0.006405454 -0.026902907 0.021778543 0.0025621816
0.025621817 -0.03458945 0.010248726 -0.024340725 -0.014091998 -0.04996254 -0.025621817 -0.04740036
0.0038432723 -0.020497452 -0.030746179 -0.026902907 -0.029465089 0.005124363 -0.0038432723 -0.03587054
0.03330836 -0.012810908 -0.015373089 -0.03330836 0.040994905 0.0076865447 -0.015373089 -0.038432725
-0.03715163 -0.051243633 0.024340725 0.012810908 -0.010248726 -0.015373089 0.053805813 -0.03202727
-0.055086903 -0.0691789 -0.052524723 -0.061492357 -0.005124363 -0.015373089 0.039713815 -0.010248726
-0.0076865447 -0.010248726 -0.011529817 -0.040994905 -0.053805813 0.01793527 0.015373089 -0.0076865447
-0.029465089 0.029465089 -0.03587054 -0.011529817 -0.012810908 -0.024340725 0.011529817 -0.040994905
-0.03330836 0.0012810908 -0.006405454 -0.024340725 0.025621817 -0.06533563 0.008967635 0.03202727
0.021778543 -0.042275995 -0.020497452 -0.005124363 0.024340725 -0.023059634 -0.021778543 -0.0038432723
-0.014091998 -0.014091998 -0.039713815 0.0038432723 0.020497452 0.025621817 -0.0012810908 -0.005124363
-0.0025621816 -0.0025621816 -0.01793527 0.020497452 0.04868145 -0.0076865447 -0.0076865447 -0.03587054
-0.0025621816 0.0012810908 0.025621817 0.0 -0.0076865447 -0.015373089 0.019216362 -0.03587054
-0.010248726 -0.04611927 0.0012810908 -0.0076865447 -0.011529817 0.0025621816 0.04483818 -0.021778543
0.008967635 -0.006405454 -0.04483818 -0.029465089 -0.03458945 -0.011529817 -0.028183997 0.005124363
0.0025621816 0.026902907 -0.030746179 0.019216362 0.006405454 -0.008967635 0.025621817 0.008967635
0.0038432723 -0.023059634 -0.014091998 0.0 -0.019216362 -0.011529817 0.026902907 0.03715163
0.051243633 -0.0076865447 -0.014091998 -0.014091998 -0.010248726 -0.043557085 0.019216362 -0.008967635
-0.008967635 -0.026902907 -0.08455199 -0.011529817 0.023059634 -0.006405454 0.025621817 -0.024340725
0.029465089 -0.008967635 -0.021778543 0.005124363 0.061492357 0.006405454 0.01665418 -0.029465089
-0.015373089 -0.025621817 0.021778543 -0.0038432723 -0.01793527 0.012810908 -0.015373089 -0.03458945
-0.03330836 -0.052524723 0.006405454 0.0038432723 0.0 -0.012810908 -0.0038432723 0.01793527
0.008967635 0.025621817 -0.07045999 0.0038432723 0.0025621816 0.021778543 0.01793527 0.03587054
-0.014091998 0.025621817 -0.03715163 -0.030746179 0.010248726 -0.029465089 0.03715163 -0.010248726
-0.019216362 0.01665418 0.021778543 -0.008967635 0.03330836 -0.026902907 0.0012810908 0.011529817
0.040994905 -0.005124363 -0.01793527 -0.006405454 -0.03202727 -0.03715163 -0.0038432723 -0.005124363
0.01665418 -0.028183997 -0.052524723 -0.0025621816 -0.005124363 0.042275995 0.006405454 0.0076865447
0.005124363 -0.015373089 -0.008967635 -0.005124363 -0.01665418 0.019216362 0.0025621816 -0.011529817
0.019216362 -0.025621817 0.030746179 -0.011529817 -0.01793527 0.01793527 0.0012810908 -0.005124363
-0.024340725 -0.03458945 0.0038432723 -0.012810908 -0.024340725 -0.0025621816 0.011529817 -0.01665418
-0.021778543 0.042275995 -0.043557085 0.03202727 -0.028183997 -0.021778543 0.0 -0.0012810908
-0.0012810908 0.0025621816 -0.0025621816 0.0076865447 -0.020497452 -0.019216362 -0.024340725 0.006405454

sequential_1/conv2d_2/Conv2D f4 [32, 3, 3, 1]
00000000: d25e b93d cc55 173e 0437 47bd 4a4d 283e
00000010: 3e9d 923d 0ab0 033e a1a9 7d3b 715c 9bbd
00000020: 0621 b13d 9577 993c 5d8b 2f3e 0423 3b3e
00000030: 9022 643e 5f92 a0bc c12f a13c 49b7 1c3e
00000040: d31f f8bd 0a75 8abd 1e3e 7d3e 7468 1b3d
00000050: 2c0b 4d3e 66bd 673e cdb1 003d 2541 9b3d
00000060: 2b25 9cbb b4b9 c4bd aef4 acbd 6cb5 4a3d
00000070: e9d4 fc3d edc5 41bd 09b1 433e 15d1 103d
00000080: 357d bebd 7d0b 5f3e ae94 833d dc12 9dbc
00000090: d9e8 8ebd 5b0c 3f3d e61d b0bc 15dc 003e
000000a0: 85db 723e c9c3 af3d 43cd 333e 0fb0 5d3e
000000b0: 15ab 693d b148 3d3e 5702 103e 6aef 35bd
000000c0: b7ff ce3d df13 e0bd afcc bbbd 6e5d 6d3d
000000d0: f70f 22be 085d f63d faff 513e c57b 53bd
000000e0: a837 c9bd 30dc b53b a089 243e 064f f73d
000000f0: 17b1 1dbe 3b62 c2bd 0a3f 653d d2cf dcbc
00000100: a4ae 9cbd c008 e73d 2ac2 07be 414d 10bc
00000110: 5f62 273e c541 3cbe df6f 443d 3c2b cd3d
00000120: fc5b 0e3e bcd1 c23c fb1b dc3d 8e6a 0bbe
00000130: 86b9 093e ee68 613e 84aa 08be cf57 81bd
00000140: 35d4 203e a2df 1e3d de5c df3c ef19 94bd
00000150: 7de0 513e ba39 bcbd 3f52 093d 083e 2c3e
00000160: 30a3 d73d a889 2e3d 6023 22be 241c 08bd
00000170: 6b35 613e 28c8 08be 7de3 09bd af1b d83d
00000180: 455e 27be 1bd0 14be f8bb cf3d 9416 cbbd
00000190: 35cf 07be 06c7 8b3d 87cc 8a3d 1835 673d
000001a0: 03bd 8dbc 53f6 513d db8a 533e a48b 353e
000001b0: ecc0 0f3e 4bf2 d73b 26b5 37be fc00 313e
000001c0: e294 cdbd d388 a0bd 11d5 df3d e2ef 9dbd
000001d0: 2a90 bebd c29f 89bd bea6 c6bd 53ea 60bc
000001e0: c20c 303e 0831 8f3c 8387 cf3d 5d6b 983d
000001f0: bb8c 99bc 1528 2a3e d9cb 9c3c 7492 afbd
00000200: 95d6 313e b65a 8d3d dd7d eb3d 15a1 283e
00000210: ce3d e4bd 057d 223e da20 303d 1507 8bbd
00000220: 6824 40bd 59c4 4ebe 0c5d 913d f609 95bd
00000230: f71e 153e fa10 663d 2756 11bc 4976 423e
00000240: 96dd 6b3d 796c cd3d efa3 f73d 6dbc e2bc
00000250: 5170 b53d f9c8 7abd 0973 a23d c5ff dfbd
00000260: 3165 143e 7d69 05be b7d1 6fbe 0bc4 6cbd
00000270: be75 93bd 580d d73c fcd9 2d3e 8d5c 493e
00000280: 7f60 033d 891a 2b3e b17b 1f3e 85ca b2bd
00000290: c83d b73a 8c61 1d3e 24c5 693d 81b2 a33d
000002a0: e235 ab3c 42f4 343e 3e00 dbbd 6f98 eebd
000002b0: dbc2 4cbe e44a febd 062f 31bc ff18 923d
000002c0: e078 2c3e 8fa6 723e 9cae b33d f840 bc3c
000002d0: 701b d1bd 5f5e fd3d 457c 8abb dc90 da3d
000002e0: 218f e03d ee48 8a3d 3bfd 503e d484 3c3e
000002f0: 3c57 ef3d c0c0 9e3d 35a5 1f3e 1230 0e3e
00000300: 4b61 443e 606f fd3d 1d5c e23d cbfa ee3d
00000310: 3fe1 283e 6643 5f3c 8772 0bbe f12c 283e
00000320: cb2c 4f3e 46f6 c83c 4b76 b53d c921 523e
00000330: 7f27 183e 5650 873d ec48 b33a a48c 04be
00000340: e1a6 073e 474c 493e b5ef c9b8 b986 b13d
00000350: 51a3 2d3e e8f5 0c3e 7cbf a13d 3d9c f03d
00000360: ac76 523e f7b0 70bc 6528 3bbd 74d0 ab3d
00000370: 8eef 0c3d 2fbb 2fbd f92e dbbd 93a2 14be
00000380: cf24 063e adfc 0fbe 0dcf 04be 2c75 a9bd
00000390: 82cd e737 d06e 48bd 5333 103c 8141 d93d
000003a0: 8f94 553e e101 d13d fe58 523e 006b 113a
000003b0: fb44 8ebc 516c f0bc 59e8 a93d 1f5d 06be
000003c0: 0e68 693e fea2 5ebd 897b 2cbe a723 343e
000003d0: f02c 2e3e abca 373e a21e 9dbd b872 483e
000003e0: 4887 8ebd e59a de3d ecba 08be 98ee 6e3d
000003f0: 1661 1e3e 12f8 ae3c bdd4 f8bd fb9c 523e
0.09051289 0.14778823 -0.04863645 0.16435733 0.07158898 0.12860122 0.0038705843 -0.07585991
0.08648877 0.018733779 0.17143007 0.18275076 0.2227881 -0.019601045 0.019676091 0.15304293
-0.12115445 -0.06760605 0.24730727 0.03794141 0.20023793 0.22630844 0.031419564 0.07580785
-0.004765173 -0.096057326 -0.084451064 0.049489424 0.12345297 -0.047307897 0.19110502 0.035355646
-0.09301225 0.21781726 0.06424843 -0.019174032 -0.06978006 0.046642642 -0.021498632 0.12583955
0.23716553 0.08582265 0.1755877 0.21649192 0.057047922 0.18484761 0.14063393 -0.044417776
0.101073675 -0.1094129 -0.091699 0.05795043 -0.15826403 0.12029463 0.20507804 -0.051631708
-0.09825069 0.00554993 0.16068125 0.120756194 -0.15399586 -0.09491392 0.05596832 -0.026954565
-0.076504976 0.11280966 -0.13257661 -0.008807481 0.1634612 -0.18384464 0.04795825 0.10018012
0.13902277 0.02378165 0.10747524 -0.13614866 0.13449678 0.22012684 -0.13346297 -0.06315576
0.1570595 0.03878749 0.027265962 -0.07231509 0.20495792 -0.09190698 0.0335257 0.16820538
0.105291724 0.042611748 -0.15833807 -0.033229962 0.21993034 -0.13357604 -0.033664215 0.10552155
-0.16344555 -0.14532511 0.10143274 -0.09916416 -0.13262637 0.0682507 0.06777292 0.05644712
-0.017302042 0.051260304 0.20658438 0.1772905 0.14038438 0.006590163 -0.17940196 0.17285532
-0.10038163 -0.07838597 0.10929311 -0.0771177 -0.09304841 -0.067199245 -0.09699772 -0.013727742
0.17192367 0.017479435 0.10133269 0.07442353 -0.018743863 0.16616853 0.01914017 -0.085728556
0.17367013 0.06902067 0.11498616 0.16467698 -0.11144601 0.15868004 0.04300008 -0.0678846
-0.04690972 -0.20192088 0.070978254 -0.072772905 0.14562593 0.056168534 -0.008870638 0.18990435
0.057584368 0.10030455 0.12091815 -0.027677739 0.08859313 -0.06122682 0.079320975 -0.10937456
0.14491726 -0.13028522 -0.23419844 -0.05780415 -0.07200192 0.02625148 0.16977686 0.19664212
0.032074448 0.16709341 0.15574528 -0.08730034 0.0013980204 0.15369242 0.057072774 0.07993031
0.020899717 0.17671302 -0.106934056 -0.11650168 -0.19996206 -0.12416628 -0.010814434 0.07133674
0.16842985 0.2369635 0.087735385 0.022980198 -0.102103114 0.123715155 -0.00422624 0.10672161
0.109648 0.067521915 0.204091 0.18410045 0.116865605 0.07751608 0.15590365 0.13885525
0.1917774 0.12374759 0.110527255 0.11668929 0.16492175 0.013626909 -0.13617907 0.16423394
0.20231931 0.024531495 0.08860453 0.205207 0.14858817 0.0660712 0.0013678349 -0.12944275
0.13247253 0.19658004 -9.629076e-05 0.086682744 0.16956832 0.13765681 0.07897851 0.1174855
0.20553082 -0.014690629 -0.04569282 0.08389369 0.034408145 -0.04290312 -0.10702319 -0.14515142
0.13099979 -0.14061232 -0.12969609 -0.08274302 2.7633043e-05 -0.048933804 0.008801299 0.10608197
0.20857452 0.102054365 0.2054176 0.0005547255 -0.017366877 -0.029348524 0.0829627 -0.1312146
0.227936 -0.05435466 -0.16844 0.17591725 0.1700933 0.17948405 -0.07671858 0.19575012
-0.069593966 0.108693875 -0.13352555 0.05833301 0.15466723 0.021358524 -0.121499516 0.20567696

sequential_1/conv2d_3/Conv2D i1 [64, 3, 3, 32]
00000000: 1024 5f08 22e1 163d e8d9 1514 0b1b 2f09
00000010: 17ec 40e1 e940 01f5 f2a0 6cde d73e c0d1
00000020: cf4b 4113 cffc e0cf 0726 0540 a1e6 4ce1
00000030: cc39 f31e 0915 0644 249d 3328 f0d0 2c2b
00000040: fa36 1b19 2b2f 5208 4dea 6118 a9c9 0118
00000050: 46a1 d781 0d18 fa01 5123 f35d c7c4 00da
00000060: efc0 18e5 0061 1bef efdd fd47 0c3d 0ddc
00000070: da2c d1b6 fdec d4e5 c60a 0a26 210a 3a11
00000080: 2ac0 10b8 43e7 f3b7 fec2 ea1e f0af 25f2
00000090: f6d1 c3c6 0be3 3acf 36d0 2400 361a 2c0a
000000a0: 0e04 11d9 b614 5360 37c6 27c0 efb4 0b37
000000b0: f414 fe1a b6e5 2004 de1f ed1f 2aed 0a0c
000000c0: 4720 df10 ddbe 28e1 1215 3fec e0fb f6d7
000000d0: 053a cd0a 17fe 080b c9b1 31ec 095e f7b4
000000e0: 34e7 b447 f4f2 3746 c93b 1dde fcf8 0be2
000000f0: 29cb 0b2b 0538 27dd be86 64bc 30e2 2ffa
16 36 95 8 34 -31 22 61
-24 -39 21 20 11 27 47 9
23 -20 64 -31 -23 64 1 -11
-14 -96 108 -34 -41 62 -64 -47
-49 75 65 19 -49 -4 -32 -49
7 38 5 64 -95 -26 76 -31
-52 57 -13 30 9 21 6 68
36 -99 51 40 -16 -48 44 43
-6 54 27 25 43 47 82 8
77 -22 97 24 -87 -55 1 24
70 -95 -41 -127 13 24 -6 1
81 35 -13 93 -57 -60 0 -38
-17 -64 24 -27 0 97 27 -17
-17 -35 -3 71 12 61 13 -36
-38 44 -47 -74 -3 -20 -44 -27
-58 10 10 38 33 10 58 17
42 -64 16 -72 67 -25 -13 -73
-2 -62 -22 30 -16 -81 37 -14
-10 -47 -61 -58 11 -29 58 -49
54 -48 36 0 54 26 44 10
14 4 17 -39 -74 20 83 96
55 -58 39 -64 -17 -76 11 55
-12 20 -2 26 -74 -27 32 4
-34 31 -19 31 42 -19 10 12
71 32 -33 16 -35 -66 40 -31
18 21 63 -20 -32 -5 -10 -41
5 58 -51 10 23 -2 8 11
-55 -79 49 -20 9 94 -9 -76
52 -25 -76 71 -12 -14 55 70
-55 59 29 -34 -4 -8 11 -30
41 -53 11 43 5 56 39 -35
-66 -122 100 -68 48 -30 47 -6
